Model: "model"
__________________________________________________________________________________________________
Layer (type)                    Output Shape         Param #     Connected to                     
==================================================================================================
input_1 (InputLayer)            [(None, 672, 2)]     0                                            
__________________________________________________________________________________________________
conv1d (Conv1D)                 (None, 672, 32)      96          input_1[0][0]                    
__________________________________________________________________________________________________
batch_normalization (BatchNorma (None, 672, 32)      128         conv1d[0][0]                     
__________________________________________________________________________________________________
dropout (Dropout)               (None, 672, 32)      0           batch_normalization[0][0]        
__________________________________________________________________________________________________
max_pooling1d (MaxPooling1D)    (None, 336, 32)      0           dropout[0][0]                    
__________________________________________________________________________________________________
conv1d_1 (Conv1D)               (None, 336, 64)      4160        max_pooling1d[0][0]              
__________________________________________________________________________________________________
batch_normalization_1 (BatchNor (None, 336, 64)      256         conv1d_1[0][0]                   
__________________________________________________________________________________________________
dropout_1 (Dropout)             (None, 336, 64)      0           batch_normalization_1[0][0]      
__________________________________________________________________________________________________
conv1d_2 (Conv1D)               (None, 336, 32)      2080        dropout_1[0][0]                  
__________________________________________________________________________________________________
batch_normalization_2 (BatchNor (None, 336, 32)      128         conv1d_2[0][0]                   
__________________________________________________________________________________________________
dropout_2 (Dropout)             (None, 336, 32)      0           batch_normalization_2[0][0]      
__________________________________________________________________________________________________
conv1d_3 (Conv1D)               (None, 336, 64)      4160        dropout_2[0][0]                  
__________________________________________________________________________________________________
batch_normalization_3 (BatchNor (None, 336, 64)      256         conv1d_3[0][0]                   
__________________________________________________________________________________________________
dropout_3 (Dropout)             (None, 336, 64)      0           batch_normalization_3[0][0]      
__________________________________________________________________________________________________
add (Add)                       (None, 336, 64)      0           dropout_3[0][0]                  
                                                                 dropout_1[0][0]                  
__________________________________________________________________________________________________
max_pooling1d_1 (MaxPooling1D)  (None, 168, 64)      0           add[0][0]                        
__________________________________________________________________________________________________
conv1d_4 (Conv1D)               (None, 168, 128)     16512       max_pooling1d_1[0][0]            
__________________________________________________________________________________________________
batch_normalization_4 (BatchNor (None, 168, 128)     512         conv1d_4[0][0]                   
__________________________________________________________________________________________________
dropout_4 (Dropout)             (None, 168, 128)     0           batch_normalization_4[0][0]      
__________________________________________________________________________________________________
conv1d_5 (Conv1D)               (None, 168, 64)      8256        dropout_4[0][0]                  
__________________________________________________________________________________________________
batch_normalization_5 (BatchNor (None, 168, 64)      256         conv1d_5[0][0]                   
__________________________________________________________________________________________________
dropout_5 (Dropout)             (None, 168, 64)      0           batch_normalization_5[0][0]      
__________________________________________________________________________________________________
conv1d_6 (Conv1D)               (None, 168, 128)     16512       dropout_5[0][0]                  
__________________________________________________________________________________________________
batch_normalization_6 (BatchNor (None, 168, 128)     512         conv1d_6[0][0]                   
__________________________________________________________________________________________________
dropout_6 (Dropout)             (None, 168, 128)     0           batch_normalization_6[0][0]      
__________________________________________________________________________________________________
add_1 (Add)                     (None, 168, 128)     0           dropout_6[0][0]                  
                                                                 dropout_4[0][0]                  
__________________________________________________________________________________________________
conv1d_7 (Conv1D)               (None, 168, 64)      8256        add_1[0][0]                      
__________________________________________________________________________________________________
batch_normalization_7 (BatchNor (None, 168, 64)      256         conv1d_7[0][0]                   
__________________________________________________________________________________________________
dropout_7 (Dropout)             (None, 168, 64)      0           batch_normalization_7[0][0]      
__________________________________________________________________________________________________
conv1d_8 (Conv1D)               (None, 168, 128)     16512       dropout_7[0][0]                  
__________________________________________________________________________________________________
batch_normalization_8 (BatchNor (None, 168, 128)     512         conv1d_8[0][0]                   
__________________________________________________________________________________________________
dropout_8 (Dropout)             (None, 168, 128)     0           batch_normalization_8[0][0]      
__________________________________________________________________________________________________
add_2 (Add)                     (None, 168, 128)     0           dropout_8[0][0]                  
                                                                 add_1[0][0]                      
__________________________________________________________________________________________________
max_pooling1d_2 (MaxPooling1D)  (None, 84, 128)      0           add_2[0][0]                      
__________________________________________________________________________________________________
conv1d_9 (Conv1D)               (None, 84, 256)      65792       max_pooling1d_2[0][0]            
__________________________________________________________________________________________________
batch_normalization_9 (BatchNor (None, 84, 256)      1024        conv1d_9[0][0]                   
__________________________________________________________________________________________________
dropout_9 (Dropout)             (None, 84, 256)      0           batch_normalization_9[0][0]      
__________________________________________________________________________________________________
conv1d_10 (Conv1D)              (None, 84, 128)      32896       dropout_9[0][0]                  
__________________________________________________________________________________________________
batch_normalization_10 (BatchNo (None, 84, 128)      512         conv1d_10[0][0]                  
__________________________________________________________________________________________________
dropout_10 (Dropout)            (None, 84, 128)      0           batch_normalization_10[0][0]     
__________________________________________________________________________________________________
conv1d_11 (Conv1D)              (None, 84, 256)      65792       dropout_10[0][0]                 
__________________________________________________________________________________________________
batch_normalization_11 (BatchNo (None, 84, 256)      1024        conv1d_11[0][0]                  
__________________________________________________________________________________________________
dropout_11 (Dropout)            (None, 84, 256)      0           batch_normalization_11[0][0]     
__________________________________________________________________________________________________
add_3 (Add)                     (None, 84, 256)      0           dropout_11[0][0]                 
                                                                 dropout_9[0][0]                  
__________________________________________________________________________________________________
conv1d_12 (Conv1D)              (None, 84, 128)      32896       add_3[0][0]                      
__________________________________________________________________________________________________
batch_normalization_12 (BatchNo (None, 84, 128)      512         conv1d_12[0][0]                  
__________________________________________________________________________________________________
dropout_12 (Dropout)            (None, 84, 128)      0           batch_normalization_12[0][0]     
__________________________________________________________________________________________________
conv1d_13 (Conv1D)              (None, 84, 256)      65792       dropout_12[0][0]                 
__________________________________________________________________________________________________
batch_normalization_13 (BatchNo (None, 84, 256)      1024        conv1d_13[0][0]                  
__________________________________________________________________________________________________
dropout_13 (Dropout)            (None, 84, 256)      0           batch_normalization_13[0][0]     
__________________________________________________________________________________________________
add_4 (Add)                     (None, 84, 256)      0           dropout_13[0][0]                 
                                                                 add_3[0][0]                      
__________________________________________________________________________________________________
conv1d_14 (Conv1D)              (None, 84, 128)      32896       add_4[0][0]                      
__________________________________________________________________________________________________
batch_normalization_14 (BatchNo (None, 84, 128)      512         conv1d_14[0][0]                  
__________________________________________________________________________________________________
dropout_14 (Dropout)            (None, 84, 128)      0           batch_normalization_14[0][0]     
__________________________________________________________________________________________________
conv1d_15 (Conv1D)              (None, 84, 256)      65792       dropout_14[0][0]                 
__________________________________________________________________________________________________
batch_normalization_15 (BatchNo (None, 84, 256)      1024        conv1d_15[0][0]                  
__________________________________________________________________________________________________
dropout_15 (Dropout)            (None, 84, 256)      0           batch_normalization_15[0][0]     
__________________________________________________________________________________________________
add_5 (Add)                     (None, 84, 256)      0           dropout_15[0][0]                 
                                                                 add_4[0][0]                      
__________________________________________________________________________________________________
conv1d_16 (Conv1D)              (None, 84, 128)      32896       add_5[0][0]                      
__________________________________________________________________________________________________
batch_normalization_16 (BatchNo (None, 84, 128)      512         conv1d_16[0][0]                  
__________________________________________________________________________________________________
dropout_16 (Dropout)            (None, 84, 128)      0           batch_normalization_16[0][0]     
__________________________________________________________________________________________________
conv1d_17 (Conv1D)              (None, 84, 256)      65792       dropout_16[0][0]                 
__________________________________________________________________________________________________
batch_normalization_17 (BatchNo (None, 84, 256)      1024        conv1d_17[0][0]                  
__________________________________________________________________________________________________
dropout_17 (Dropout)            (None, 84, 256)      0           batch_normalization_17[0][0]     
__________________________________________________________________________________________________
add_6 (Add)                     (None, 84, 256)      0           dropout_17[0][0]                 
                                                                 add_5[0][0]                      
__________________________________________________________________________________________________
conv1d_18 (Conv1D)              (None, 84, 128)      32896       add_6[0][0]                      
__________________________________________________________________________________________________
batch_normalization_18 (BatchNo (None, 84, 128)      512         conv1d_18[0][0]                  
__________________________________________________________________________________________________
dropout_18 (Dropout)            (None, 84, 128)      0           batch_normalization_18[0][0]     
__________________________________________________________________________________________________
conv1d_19 (Conv1D)              (None, 84, 256)      65792       dropout_18[0][0]                 
__________________________________________________________________________________________________
batch_normalization_19 (BatchNo (None, 84, 256)      1024        conv1d_19[0][0]                  
__________________________________________________________________________________________________
dropout_19 (Dropout)            (None, 84, 256)      0           batch_normalization_19[0][0]     
__________________________________________________________________________________________________
add_7 (Add)                     (None, 84, 256)      0           dropout_19[0][0]                 
                                                                 add_6[0][0]                      
__________________________________________________________________________________________________
conv1d_20 (Conv1D)              (None, 84, 128)      32896       add_7[0][0]                      
__________________________________________________________________________________________________
batch_normalization_20 (BatchNo (None, 84, 128)      512         conv1d_20[0][0]                  
__________________________________________________________________________________________________
dropout_20 (Dropout)            (None, 84, 128)      0           batch_normalization_20[0][0]     
__________________________________________________________________________________________________
conv1d_21 (Conv1D)              (None, 84, 256)      65792       dropout_20[0][0]                 
__________________________________________________________________________________________________
batch_normalization_21 (BatchNo (None, 84, 256)      1024        conv1d_21[0][0]                  
__________________________________________________________________________________________________
dropout_21 (Dropout)            (None, 84, 256)      0           batch_normalization_21[0][0]     
__________________________________________________________________________________________________
add_8 (Add)                     (None, 84, 256)      0           dropout_21[0][0]                 
                                                                 add_7[0][0]                      
__________________________________________________________________________________________________
conv1d_22 (Conv1D)              (None, 84, 128)      32896       add_8[0][0]                      
__________________________________________________________________________________________________
batch_normalization_22 (BatchNo (None, 84, 128)      512         conv1d_22[0][0]                  
__________________________________________________________________________________________________
dropout_22 (Dropout)            (None, 84, 128)      0           batch_normalization_22[0][0]     
__________________________________________________________________________________________________
conv1d_23 (Conv1D)              (None, 84, 256)      65792       dropout_22[0][0]                 
__________________________________________________________________________________________________
batch_normalization_23 (BatchNo (None, 84, 256)      1024        conv1d_23[0][0]                  
__________________________________________________________________________________________________
dropout_23 (Dropout)            (None, 84, 256)      0           batch_normalization_23[0][0]     
__________________________________________________________________________________________________
add_9 (Add)                     (None, 84, 256)      0           dropout_23[0][0]                 
                                                                 add_8[0][0]                      
__________________________________________________________________________________________________
conv1d_24 (Conv1D)              (None, 84, 128)      32896       add_9[0][0]                      
__________________________________________________________________________________________________
batch_normalization_24 (BatchNo (None, 84, 128)      512         conv1d_24[0][0]                  
__________________________________________________________________________________________________
dropout_24 (Dropout)            (None, 84, 128)      0           batch_normalization_24[0][0]     
__________________________________________________________________________________________________
conv1d_25 (Conv1D)              (None, 84, 256)      65792       dropout_24[0][0]                 
__________________________________________________________________________________________________
batch_normalization_25 (BatchNo (None, 84, 256)      1024        conv1d_25[0][0]                  
__________________________________________________________________________________________________
dropout_25 (Dropout)            (None, 84, 256)      0           batch_normalization_25[0][0]     
__________________________________________________________________________________________________
add_10 (Add)                    (None, 84, 256)      0           dropout_25[0][0]                 
                                                                 add_9[0][0]                      
__________________________________________________________________________________________________
bidirectional (Bidirectional)   (None, 512)          530432      input_1[0][0]                    
__________________________________________________________________________________________________
global_average_pooling1d (Globa (None, 256)          0           add_10[0][0]                     
__________________________________________________________________________________________________
concatenate (Concatenate)       (None, 768)          0           bidirectional[0][0]              
                                                                 global_average_pooling1d[0][0]   
__________________________________________________________________________________________________
dense (Dense)                   (None, 64)           49216       concatenate[0][0]                
__________________________________________________________________________________________________
dense_1 (Dense)                 (None, 1)            65          dense[0][0]                      
==================================================================================================
Total params: 1,527,681
Trainable params: 1,519,617
Non-trainable params: 8,064
__________________________________________________________________________________________________
